modelo_no_supervisado/IoTShield/model.tflite (tflite, 9748 bytes, 12 tensors)

sequential_2/sequential_1/dense_3/BiasAdd/ReadVariableOp f4 [16]
0	0x3df94b0e	0.12172519
1	0x3d9bb8ef	0.07603633
2	0x3dd70076	0.10498135
3	0x3e0edaa6	0.13950595
4	0x3e07e366	0.1327034
5	0x00000000	0.0
6	0x00000000	0.0
7	0x00000000	0.0
8	0x3dea6a1f	0.11446022
9	0x3db9611a	0.09051724
10	0x00000000	0.0
11	0x3d8bf4c0	0.06833792
12	0x3e1c2993	0.15250234
13	0xbe14a8f0	-0.1451757
14	0x00000000	0.0
15	0x3dab9e2e	0.0837978

sequential_2/sequential_1/dense_4/BiasAdd/ReadVariableOp f4 [32]
0	0xbc9e23a8	-0.019304112
1	0xbc658546	-0.014008826
2	0x3e1e6764	0.15469128
3	0xbe43d262	-0.19123223
4	0x3dadf21f	0.084934466
5	0xbcc2e2d9	-0.02378981
6	0xbd1c6b99	-0.03818855
7	0x3de002cd	0.10938034
8	0x3be3299a	0.0069324495
9	0xbbb6dc0e	-0.005580432
10	0xbe0904a8	-0.13380682
11	0x3dc99ee0	0.09844756
12	0xbdc6e93d	-0.097124554
13	0x3d92d31c	0.07169172
14	0x3db1162e	0.086468086
15	0xbd9d1cc8	-0.07671505
16	0x3de1b1ef	0.11020266
17	0xbdc44103	-0.095827125
18	0xbd9d0169	-0.076662846
19	0x3e06a577	0.13149057
20	0x3dd91ec6	0.10601573
21	0x00000000	0.0
22	0x3dd89c66	0.10576706
23	0xbe8bf2d2	-0.27333695
24	0x3e07d9e8	0.13266718
25	0xbd0331ad	-0.032029796
26	0x00000000	0.0
27	0x3e13ef61	0.14446785
28	0xbddb93b6	-0.10721533
29	0x3deb9556	0.11503093
30	0xbe36e384	-0.17860228
31	0x3d866604	0.06562427

sequential_2/sequential_1/dense_5/BiasAdd/ReadVariableOp f4 [4]
0	0xbdaef340	-0.0854249
1	0xbe4299a5	-0.19003923
2	0xbc15fed9	-0.009154999
3	0xbdb717cf	-0.08940088

sequential_2/sequential/dense_1/BiasAdd/ReadVariableOp f4 [16]
0	0xbd17efe7	-0.037094023
1	0x3e0cf9e5	0.13767202
2	0xbd7ac076	-0.0612187
3	0x3e284dec	0.16435975
4	0x00000000	0.0
5	0x00000000	0.0
6	0xbc5f3a8a	-0.013624797
7	0xbd189c7b	-0.037258606
8	0x00000000	0.0
9	0xbbe64feb	-0.00702857
10	0x3d08383e	0.03325676
11	0x3e1e6184	0.15466887
12	0x3ddaafcf	0.10678064
13	0xbb9508d2	-0.0045481706
14	0xbdd54a77	-0.10414594
15	0x3e2201c6	0.15820989

sequential_2/sequential/dense_2/BiasAdd/ReadVariableOp f4 [4]
0	0x3c82c3ae	0.015962448
1	0x00000000	0.0
2	0x3e154805	0.14578255
3	0xbd7f92d9	-0.062395904

sequential_2/sequential/dense/BiasAdd/ReadVariableOp f4 [32]
0	0x3adf5c9d	0.0017041151
1	0x38648aa7	5.4488566e-05
2	0x3e1ec815	0.15506013
3	0x3e3c161c	0.18367809
4	0xbc3b96fe	-0.011449574
5	0x00000000	0.0
6	0xbb00f415	-0.0019676734
7	0x3e136c23	0.1439672
8	0x00000000	0.0
9	0x3e6f2c94	0.23356849
10	0xbdab7740	-0.083723545
11	0x3e307169	0.17230763
12	0x3e42c07e	0.19018742
13	0x3e296cce	0.16545412
14	0x3e269545	0.1626788
15	0x00000000	0.0
16	0x3e468783	0.19387631
17	0x3d92cdb3	0.0716814
18	0x3a907724	0.0011021835
19	0x3e8ca01d	0.27465907
20	0xbb3be57b	-0.0028670717
21	0x3e0720c7	0.13196097
22	0x00000000	0.0
23	0xbd627487	-0.05528691
24	0x3e403763	0.18771128
25	0x3e00d9fe	0.12583157
26	0xbc12a89e	-0.008951334
27	0x3a7f8e61	0.0009748694
28	0xbcaabffd	-0.0208435
29	0x3e26d3c6	0.16291723
30	0x391457bf	0.00014147068
31	0xbdca36fe	-0.0987377

sequential_2/sequential/dense/MatMul f4 [32, 4]
0	0xbdab58cd	-0.08366547
1	0x3e8b9ffc	0.27270496
2	0x3e97cd46	0.296488
3	0x3e74ddd1	0.23912741
4	0x3dd9c316	0.10632913
5	0xbd619972	-0.055077977
6	0x3ef80c8f	0.4844708
7	0xbe04fe75	-0.12987693
8	0xbd48aa40	-0.048990488
9	0x3ee80e23	0.45323285
10	0x3ee0afe8	0.43884206
11	0xbd96546f	-0.07340323
12	0xbdc1fecb	-0.09472426
13	0x3e9e542b	0.3092359
14	0xbccf409e	-0.025299367
15	0xbe8ac060	-0.27099895
16	0x3e90d316	0.28286046
17	0xbc274041	-0.01020819
18	0xbebc5be4	-0.36788857
19	0x3dbe2f30	0.09286344
20	0x3d1fc928	0.039010197
21	0xbe8bf5a2	-0.2733584
22	0xbeb0d4ec	-0.34537446
23	0xbe5a6376	-0.21327004
24	0x3e9aaddc	0.3021077
25	0xbe797d89	-0.24364294
26	0x3e70e9e5	0.23526724
27	0x3df42ef1	0.11923016
28	0x3f18b3fe	0.59649646
29	0x3eafa881	0.34308246
30	0x3eee5b92	0.46554238
31	0xbe63a66e	-0.22231457
32	0xbe911d6f	-0.2834277
33	0xbe6b30cb	-0.22967832
34	0xbd0f38c8	-0.03496626
35	0xbea82b16	-0.32845372
36	0xbc6deca0	-0.014521748
37	0x3e011c0f	0.1260836
38	0xbdf42658	-0.11921376
39	0xbdf98e1b	-0.121853076
40	0x3d9aa635	0.07551233
41	0x3eab60c6	0.3347227
42	0xbe32fb1d	-0.17478605
43	0xbda48a22	-0.08034159
44	0x3dca3f58	0.09875363
45	0x3ee5ce07	0.4488375
46	0xbd45165b	-0.048117023
47	0xbecdf083	-0.40222558
48	0xbe1c18aa	-0.15243784
49	0x3f1098dd	0.5648325
50	0xbe241178	-0.16022289
51	0x390885ed	0.00013019862
52	0x3eb30ede	0.3497228
53	0x3ef3c856	0.47613782
54	0x3ea98761	0.33111098
55	0xbea5aed0	-0.32359934
56	0x3f084009	0.5322271
57	0x3f2144f4	0.6299584
58	0x3ee15fab	0.440183
59	0x3d86142c	0.06546816
60	0x3e87f9aa	0.26557666
61	0xbe4cf420	-0.20015001
62	0xbe68c04d	-0.22729607
63	0xbeb63e7d	-0.3559455
64	0x3c33c8ff	0.010973214
65	0x3e9af01e	0.3026132
66	0xbe2fb8dd	-0.17160363
67	0x3dd6df0d	0.10491762
68	0x3e9615d3	0.29313526
69	0x3ec27da7	0.3798649
70	0x3e113b2d	0.1418273
71	0x3d436172	0.047700353
72	0x3d5cd0a9	0.05390993
73	0x3e884062	0.2661162
74	0x3ea5b9a1	0.32368186
75	0x3e57b54f	0.21065257
76	0xbc69b0d3	-0.01426335
77	0xbe58c381	-0.21168329
78	0xbec0b0e7	-0.37634966
79	0x3f0e9fb5	0.55712444
80	0xbd3002e1	-0.042971496
81	0xbe115d3e	-0.14195725
82	0x3f098941	0.5372506
83	0x3e4bea3c	0.19913572
84	0xbcd28226	-0.025696825
85	0x3dd1bb8f	0.10240852
86	0x3ea05e8e	0.3132214
87	0xbb808737	-0.003922369
88	0xbdf503d4	-0.11963621
89	0xbdcb3248	-0.099217
90	0xbd794fb0	-0.06086701
91	0xbc016740	-0.007898152
92	0xbf4cba47	-0.79971737
93	0x3cacc5ce	0.021090414
94	0x3e96afe4	0.2943107
95	0xbb802110	-0.0039101914
96	0xba723762	-0.000923982
97	0x3e420014	0.18945342
98	0xbecfac19	-0.40560988
99	0x3d7ff844	0.062492624
100	0x3e206b2e	0.15665886
101	0x3ecae845	0.39630333
102	0x3ec7b975	0.3900868
103	0x3eaf1d60	0.342021
104	0x3e2e1120	0.1699872
105	0xbbd846c0	-0.006600231
106	0xbeab4aae	-0.33455414
107	0x3cf69e6e	0.030104842
108	0x3e602142	0.21887687
109	0xbe4a0ba0	-0.19730997
110	0x3ee08044	0.4384786
111	0xbea0a7b0	-0.31377935
112	0x3e82a0e8	0.25513387
113	0xbe7d2641	-0.24721624
114	0xbe503a07	-0.20334636
115	0xbe75d03b	-0.24005215
116	0x3f2512cd	0.6448181
117	0x3eae3a5f	0.3402891
118	0xbcb87f7f	-0.022521732
119	0xbef17e08	-0.47166467
120	0xbe085bed	-0.13316317
121	0xbe3a714e	-0.18207285
122	0x3f05f8ef	0.5233297
123	0xbda40c57	-0.08010166
124	0x3e86e498	0.26346278
125	0xbea81b55	-0.32833353
126	0xbcd96d42	-0.026541356
127	0xbe02e595	-0.12782891

sequential_2/sequential/dense_1/MatMul f4 [16, 32]
0	0x3e1f8a23	0.15580039
1	0x3f05043e	0.519596
2	0x3f07619c	0.52883315
3	0xbe5dc259	-0.21656169
4	0x3e72ffd0	0.23730397
5	0x3da34130	0.07971418
6	0x3e4cc16a	0.19995657
7	0x3eb6eac1	0.35725978
8	0xbe623b1e	-0.22092864
9	0xbe89852c	-0.26859415
10	0xbee47ff2	-0.44628865
11	0x3d98093c	0.07423636
12	0xbcc5482d	-0.024082268
13	0x3c14f7d8	0.009092294
14	0x3ef9e3c0	0.48806572
15	0x3e224e7a	0.15850249
16	0xbe1c6151	-0.15271498
17	0x3e39d5ee	0.18148014
18	0x3f0401aa	0.5156504
19	0xbf263625	-0.6492637
20	0xbc72bc07	-0.014815337
21	0x3ed537db	0.41644177
22	0xbe995653	-0.29948673
23	0xbe513a94	-0.20432502
24	0xbeae67ed	-0.34063664
25	0x3eaf9dce	0.34300083
26	0x3d7c6faa	0.06162993
27	0x3e84089a	0.25787812
28	0xbeabdf9d	-0.3356904
29	0x3f0dc853	0.55383795
30	0x3ecaafba	0.39587194
31	0x3d35e403	0.044406902
32	0x3eccda2f	0.4001021
33	0x3ef7b584	0.48380673
34	0x3c802222	0.015641276
35	0x3e1a2198	0.15051877
36	0xbe05aa03	-0.13053136
37	0xbe899a2c	-0.26875436
38	0x3d786b41	0.06064916
39	0xbd598d63	-0.053113353
40	0x3eabe533	0.33573303
41	0x3eea5383	0.4576684
42	0x3e8c3add	0.2738866
43	0x3f134910	0.5753336
44	0x3e7ca268	0.24671328
45	0x3e8c0eeb	0.27355132
46	0x3e733e4a	0.2375423
47	0xbc6e1ac0	-0.014532745
48	0xbc54e81c	-0.012994792
49	0x3d4aec9e	0.049542062
50	0x3dab42d5	0.083623566
51	0x3d95e864	0.073197156
52	0x39ea123c	0.00044645544
53	0xbcbfe18d	-0.02342298
54	0xbea96b93	-0.33089885
55	0xbe1841f2	-0.14868906
56	0x3e9540d5	0.29151025
57	0x3efd46e3	0.49468145
58	0xbe2477b2	-0.16061285
59	0x3f01f77b	0.5076825
60	0x3e54f8a5	0.20797975
61	0x3f01d675	0.5071786
62	0x3efc0565	0.49222866
63	0xbd78030a	-0.060549773
64	0x3e90bce1	0.28269103
65	0x3d89f8cb	0.067369066
66	0x3ec80797	0.3906829
67	0xbcce3f9d	-0.025176818
68	0xbda7f6f0	-0.082013965
69	0x3d576240	0.052583933
70	0xbe1154ce	-0.14192507
71	0xbdc9e9c5	-0.09859041
72	0x3e36962a	0.1783072
73	0xbe47cee5	-0.19512518
74	0xbecc14bc	-0.3985957
75	0xbd47d1da	-0.048784114
76	0xbea7f714	-0.32805693
77	0x3ea60065	0.32422176
78	0x3e18299e	0.14859626
79	0x3e586aea	0.21134534
80	0xbc866cb2	-0.016409252
81	0xbe4b0f8b	-0.19830148
82	0x3e0b12ab	0.1358134
83	0xbd6132ba	-0.054980017
84	0x3e85fbbb	0.26168618
85	0x3f05fe59	0.5234123
86	0xbde32a52	-0.11092056
87	0x3e30ec4f	0.17277645
88	0xbe633959	-0.22189845
89	0x3ed413ab	0.41421255
90	0xbe416b80	-0.18888664
91	0x3ebfc8a6	0.3745777
92	0x3e8e9815	0.27850404
93	0x3d94b917	0.072618656
94	0x3ebcedb7	0.36900112
95	0x3da4b343	0.08042004
96	0xbe89c459	-0.26907614
97	0xbc213ab2	-0.009840654
98	0xbd0be368	-0.03415242
99	0x3e58b8a5	0.21164186
100	0xbe3ad3cf	-0.18244861
101	0x3e924fad	0.28576413
102	0xbe9b0a8d	-0.30281487
103	0x3d8e5eb9	0.06951661
104	0x3eb18591	0.34672216
105	0xbce17d21	-0.027525486
106	0x3e2f0679	0.17092313
107	0x3eeac41a	0.4585274
108	0x3eb2d9d1	0.34931806
109	0xbe0bf518	-0.13667715
110	0x3e6c33c9	0.2306663
111	0x3dff1be4	0.124564916
112	0xbdbc75b8	-0.092021406
113	0x3e5ea10e	0.21741125
114	0xbd2b81ef	-0.04187196
115	0x3ef89ce9	0.48557213
116	0xbea56dbf	-0.32310292
117	0x3ea26023	0.31713971
118	0x3ca21530	0.019785494
119	0xbe5db39b	-0.21650545
120	0xbe199e01	-0.1500168
121	0x3ebd70fe	0.3700027
122	0xbd59a6a2	-0.05313743
123	0xbe686316	-0.22694048
124	0xbc6bdf56	-0.014396509
125	0x3e973ac1	0.29537013
126	0xbef214d8	-0.47281528
127	0x3e338bc9	0.17533793
128	0x3dab0dec	0.08352265
129	0xbd62cf48	-0.05537346
130	0x3d759b68	0.05996266
131	0x3dc73df4	0.097286135
132	0xbd82cbcc	-0.063865274
133	0xbea865a9	-0.3289006
134	0xbe324bda	-0.17411748
135	0xbdce9d00	-0.10088539
136	0xbe51d593	-0.20491628
137	0xbdb2a140	-0.08722162
138	0xbe86538e	-0.26235622
139	0x3e244662	0.16042474
140	0x3e41a2e6	0.18909797
141	0xbe97c83c	-0.29644954
142	0xbe734d42	-0.2375994
143	0xbe1a07ad	-0.1504199
144	0xbe2c3f0c	-0.16820925
145	0x3e2eb10a	0.17059723
146	0xbe981799	-0.29705504
147	0xbd0f7b00	-0.03502941
148	0xbe2a2e54	-0.16619235
149	0x3e1de736	0.15420231
150	0xbe825579	-0.25455835
151	0xbdda42ea	-0.10657294
152	0xbd982498	-0.07428855
153	0xbe8cf192	-0.27528054
154	0x3e00b804	0.12570196
155	0xbde4e420	-0.11176324
156	0xbd7bdde0	-0.061490893
157	0xbe0f371c	-0.13985866
158	0xbe888f40	-0.2667179
159	0x3e057cb4	0.13035852
160	0xbeb265e5	-0.34843364
161	0xbd813c84	-0.063103706
162	0xbe25fa5b	-0.16208784
163	0xbea9b066	-0.33142394
164	0xbc4538e0	-0.012037486
165	0x3e9cba27	0.30610773
166	0xbdffc93a	-0.12489553
167	0xbe9dcf3e	-0.30822176
168	0xbe6bc30e	-0.23023626
169	0x3e811c47	0.25216886
170	0xbe2478a1	-0.16061641
171	0xbe037fc9	-0.12841715
172	0xbd9011a0	-0.07034612
173	0x3dce8220	0.10083413
174	0xbd841a5c	-0.0645034
175	0xbe9de291	-0.3083692
176	0xbde8e74a	-0.1137224
177	0xbe9feda0	-0.3123598
178	0xbe5d8f4f	-0.21636699
179	0x3d887f74	0.06664935
180	0x3e801409	0.25015286
181	0xbe9cbf12	-0.30614525
182	0x3cae0000	0.021240234
183	0xbe01b31b	-0.1266598
184	0x3e28390a	0.16428009
185	0x3e100d6e	0.14067623
186	0x3d222930	0.03959006
187	0x3e430b96	0.19047388
188	0x3ea616d9	0.32439306
189	0x3c6ba180	0.014381766
190	0xbdeb6032	-0.11492957
191	0xbe5e3e3b	-0.21703427
192	0xbc139b83	-0.009009245
193	0x3e5443b3	0.2072895
194	0xbe703369	-0.23457111
195	0xbe3853db	-0.18000738
196	0xbe34f4a6	-0.17671451
197	0xbde5be3a	-0.112179235
198	0xbddbc22f	-0.10730397
199	0xbe811165	-0.25208583
200	0x3db55fb0	0.088561416
201	0xbd6a7f55	-0.05725034
202	0x3dcb4d4a	0.09926851
203	0x3d901d8f	0.07036888
204	0x3ccaa62a	0.024737436
205	0xbe905bd2	-0.28195053
206	0x3e2eaa9a	0.17057267
207	0x3e433606	0.19063577
208	0xbe3479d6	-0.17624602
209	0xbe03acac	-0.12858838
210	0x3ea68dbd	0.32530013
211	0x3e031521	0.12801029
212	0xbe06661a	-0.13124886
213	0x3d8b3f3e	0.06799172
214	0xbe0ce979	-0.13760938
215	0x3ca75015	0.020423928
216	0x3e0b288c	0.13589686
217	0xbcb5bb24	-0.022183962
218	0x3e45c47d	0.19313236
219	0x3dd7f6fb	0.10545155
220	0xbe97eef9	-0.2967451
221	0x3e83553c	0.25650966
222	0x3e27f65f	0.16402577
223	0xbe28354a	-0.16426578
224	0xbdfe1d11	-0.12407888
225	0x3df7b985	0.12095932
226	0xbe324445	-0.17408855
227	0xbdd3bc4f	-0.103386514
228	0xbe88d308	-0.26723504
229	0x3c542880	0.012949109
230	0xbeb0aafc	-0.3450545
231	0xbd46731c	-0.04844962
232	0xbdbf4b40	-0.09340525
233	0x3e897f5b	0.26854977
234	0xbbb4cb45	-0.0055173957
235	0xbe8d5655	-0.2760493
236	0x3de952e2	0.11392762
237	0x3e107ec2	0.14110854
238	0xbc70366f	-0.0146614155
239	0x3d6768b0	0.056496322
240	0xbe5efa60	-0.21775198
241	0x3e386881	0.18008615
242	0xbe0f6986	-0.14005098
243	0xbeaa54a7	-0.3326771
244	0xbeb64553	-0.35599765
245	0xbeb17ecc	-0.3466705
246	0x3db1ca90	0.08681214
247	0xbe4b04f5	-0.1982611
248	0x3e32b42b	0.17451541
249	0x3e8c2f58	0.2737987
250	0xbeb0486a	-0.34430248
251	0xbe0a4345	-0.13502224
252	0xbc34b840	-0.011030257
253	0xbe18d9d5	-0.14926846
254	0xbc59f109	-0.013302096
255	0x3e8b3d6e	0.27195305

sequential_2/sequential/dense_2/MatMul f4 [4, 16]
0	0x3f06c91b	0.5265061
1	0x3f005253	0.50125617
2	0x3f167d34	0.58784795
3	0xbe51b384	-0.20478636
4	0x3aea46a5	0.0017873837
5	0xbc96b297	-0.018395705
6	0x3e6e1b34	0.23252565
7	0xbedb3837	-0.42816326
8	0x37424039	1.1578254e-05
9	0xbc415312	-0.011799591
10	0x3e3031f4	0.17206556
11	0x3e2a2540	0.16615772
12	0xbf4efc6d	-0.8085392
13	0xb90f7ced	-0.00013684081
14	0x3f31d127	0.69459766
15	0xbdb0c02f	-0.08630406
16	0xba02cbc0	-0.00049894676
17	0xbbce2c39	-0.006291893
18	0xb8ad7fd2	-8.273091e-05
19	0xbc884ced	-0.016638244
20	0xb3e49955	-1.0644968e-07
21	0x3587926b	1.0100897e-06
22	0x39182d45	0.00014512714
23	0xba1cec49	-0.0005986137
24	0x333f0a62	4.4480096e-08
25	0x36625dce	3.3731226e-06
26	0x3cfcbdcb	0.03085222
27	0xb0d668cf	-1.5600338e-09
28	0xbc594870	-0.013261899
29	0xbcb88925	-0.022526333
30	0xbd065a63	-0.032801043
31	0xbb1d7649	-0.0024026802
32	0xbd891a2e	-0.066944465
33	0x3e9fafe3	0.31188878
34	0xbea01459	-0.31265524
35	0x3eeefd2d	0.46677533
36	0x3c60875c	0.013704147
37	0x3a1253f6	0.0005581969
38	0x3d3f0144	0.046632066
39	0xbe49bdf0	-0.19701362
40	0xb5bc3615	-1.4022831e-06
41	0xb9cc5af4	-0.00038977677
42	0xbe849af5	-0.25899473
43	0x3f19cbff	0.600769
44	0xbdb38c88	-0.087670386
45	0xbb459285	-0.0030147147
46	0xbea5e747	-0.32403013
47	0x3ef0497d	0.46931067
48	0x3e3d19f5	0.18466933
49	0xbd71b7dd	-0.059013236
50	0x3e0a7c0f	0.13523887
51	0xbb0d9ca6	-0.0021608262
52	0xbac02ad5	-0.0014661202
53	0x3a17cac5	0.0005790408
54	0xb1a04eec	-4.6655853e-09
55	0xb75d411c	-1.3187786e-05
56	0x368377a4	3.9180322e-06
57	0x3bbebec7	0.0058210823
58	0x3cfdf0f8	0.030998692
59	0x3d073f0e	0.033019118
60	0x3c2904d4	0.0103160925
61	0xbb0d7dee	-0.0021589953
62	0xbea014cd	-0.3126587
63	0xbd0cf4fb	-0.03441332

sequential_2/sequential_1/dense_3/MatMul f4 [16, 4]
0	0xbe8418c7	-0.25800154
1	0xbeebcaba	-0.46053106
2	0x3f1482d8	0.5801215
3	0x3ee0650a	0.43827087
4	0x3eed4277	0.4633977
5	0xbe3c6692	-0.18398502
6	0xbf261a91	-0.6488429
7	0x3bf4ccb8	0.0074706934
8	0x3eb4e364	0.35329735
9	0x3da33e58	0.079708755
10	0xbef81e62	-0.4846068
11	0xbe64f0fe	-0.22357556
12	0xbe8c5818	-0.2741096
13	0xbe11fe9a	-0.14257279
14	0x3ee70f67	0.4512894
15	0xbe8b4763	-0.272029
16	0xbf365af2	-0.7123252
17	0xbedbd396	-0.42934865
18	0x3f1501d2	0.582059
19	0x3ef98bcc	0.4873947
20	0xbec8112a	-0.39075595
21	0xbeba4698	-0.36381984
22	0xbebd5826	-0.36981314
23	0xbf083874	-0.5321114
24	0xbedba2a2	-0.42897516
25	0x3dc3fbf0	0.09569538
26	0xbe75b49a	-0.23994675
27	0x3e35c958	0.17752588
28	0xbd9bf0a0	-0.07614255
29	0x3e9fd35c	0.31215942
30	0xbe2b41aa	-0.16724268
31	0xbd22c2c0	-0.03973651
32	0xbefbbd02	-0.4916764
33	0xbe92ff3f	-0.28710362
34	0x3f31fea4	0.69529176
35	0xbe0dd24e	-0.13849756
36	0x3e34125d	0.1758513
37	0xbd541128	-0.051774174
38	0x3f13beb4	0.57712865
39	0xbe3488f5	-0.1763037
40	0xbdaf55dc	-0.08561298
41	0xbeab9a42	-0.33516127
42	0xbecfc63f	-0.40580937
43	0x3e39f8cc	0.18161315
44	0x3f39921a	0.7248856
45	0x3e27ada4	0.16374832
46	0xbd4e780e	-0.05040746
47	0xbc72b05b	-0.014812554
48	0xbf2ad544	-0.6673167
49	0x3edf064c	0.43559492
50	0x3f342367	0.7036652
51	0x3f09d78e	0.53844535
52	0x3d3a4d18	0.04548368
53	0x3ea784de	0.32718557
54	0x3f3ba401	0.73297125
55	0xbd8fedd9	-0.07027788
56	0xbef5026f	-0.4785342
57	0x3e9334f0	0.28751326
58	0xbeb2ec84	-0.34946072
59	0x3e088138	0.13330543
60	0x3e77353c	0.24141401
61	0xbef23c50	-0.4731164
62	0x3e5b95e6	0.214439
63	0x3eea7885	0.45795074

sequential_2/sequential_1/dense_4/MatMul f4 [32, 16]
0	0x3e4416bc	0.19149297
1	0xbeaada55	-0.333697
2	0xbe032c44	-0.12809855
3	0x3e87eb42	0.26546675
4	0x3e420dff	0.18950652
5	0xbe31b252	-0.1735318
6	0x3dbb5044	0.09146169
7	0x3eae47cf	0.3403916
8	0xbdc66825	-0.09687833
9	0xbe7bbe88	-0.245844
10	0x3d158578	0.03650424
11	0xbe4315a6	-0.19051227
12	0xbe481beb	-0.195419
13	0xbe574254	-0.21021396
14	0x3d88d690	0.066815495
15	0xbeaa4d68	-0.3326218
16	0xbe2058d0	-0.1565888
17	0xbe751dbf	-0.23937128
18	0xbef87c35	-0.48532262
19	0x3ee7f6ac	0.45305383
20	0xbe935f29	-0.2878354
21	0xbdb36a6c	-0.08760533
22	0xbe1f2055	-0.15539677
23	0xbce48ea0	-0.02790004
24	0xbe3379d9	-0.1752695
25	0x3e496f48	0.19671357
26	0x3d6ab910	0.057305396
27	0x3e3c759e	0.18404242
28	0xbc729f99	-0.014808559
29	0x3e031fc4	0.12805086
30	0xbe8ab238	-0.27089095
31	0x3e14876d	0.14504786
32	0xbe7b8fea	-0.24566618
33	0x3d0ee560	0.034886718
34	0x3ec41290	0.38295412
35	0x3ec95a38	0.39326644
36	0x3eba7430	0.3641677
37	0xbde73980	-0.11290264
38	0xbe0e22c4	-0.1388045
39	0x3ddc71b4	0.10763875
40	0x3e82d0c6	0.25549906
41	0xbcb16953	-0.021656668
42	0x3c0a0e40	0.008426249
43	0x3e6af1e6	0.2294384
44	0xbda991f3	-0.08279791
45	0xbebc30cc	-0.3675598
46	0xbc8738c0	-0.016506553
47	0x3db5dd00	0.08880043
48	0x3d36704d	0.044540692
49	0x3dcb4049	0.09924371
50	0x3e6cb7bc	0.23116964
51	0x3e1ee164	0.15515667
52	0xbec292d6	-0.38002652
53	0x3e0580c0	0.13037395
54	0xbe10af1d	-0.141293
55	0xbdfc63ca	-0.12323721
56	0x3e77b302	0.2418938
57	0xbd163f95	-0.03668173
58	0xbe49a6e2	-0.19692567
59	0xbd2f0ebc	-0.04273866
60	0xbdcc9ff0	-0.09991443
61	0x3e95d3db	0.29263195
62	0xbde2abca	-0.110679224
63	0x3e04fba8	0.12986624
64	0xbe0860dd	-0.133182
65	0xbdd81b47	-0.10552078
66	0x3edf0bc7	0.43563673
67	0xbe5cd161	-0.21564247
68	0x3e932573	0.2873951
69	0x3e0a2832	0.13491896
70	0x3e4d56f6	0.20052704
71	0x3e6bf94e	0.23044321
72	0xbe2ee0c2	-0.17077926
73	0x3dc396d3	0.09550252
74	0xbd021b90	-0.031764567
75	0x3eab955b	0.33512387
76	0xbdb73d78	-0.08947271
77	0xbe89eba0	-0.2693758
78	0x3e1cc1be	0.15308282
79	0xbd9b0ce4	-0.07570818
80	0xbe64ee2a	-0.22356477
81	0x3e1427ad	0.1446826
82	0x3e1c9697	0.1529182
83	0xbe44157f	-0.19148825
84	0xbe310fcb	-0.17291181
85	0x3e4254ea	0.18977705
86	0xbe83c060	-0.25732708
87	0x3d2f4c30	0.042797267
88	0xbd8df9e0	-0.069324255
89	0x3dd00cda	0.10158701
90	0xbe8a8726	-0.27056235
91	0xbc5a7287	-0.0133329695
92	0x3d8e8e12	0.069606915
93	0x3cc65d14	0.024214305
94	0xbd88ab78	-0.0667333
95	0x3eb27e1c	0.3486184
96	0x3d9800dc	0.07422039
97	0xbee26250	-0.4421563
98	0xbe5a1f5d	-0.21301027
99	0xbe1b537c	-0.15168566
100	0xbe7cab84	-0.24674803
101	0x3d144498	0.03619823
102	0xbe460ea0	-0.19341516
103	0xbe49a3db	-0.19691412
104	0xbe8346ee	-0.25640053
105	0x3ea26275	0.31715742
106	0x3eaa4f79	0.33263758
107	0x3e274519	0.16334952
108	0xbdb57965	-0.08861045
109	0x3f0a7d4c	0.5409744
110	0x3b807900	0.0039206743
111	0x3db90011	0.09033216
112	0x3dc9b9f9	0.098499246
113	0x3e8e3f4a	0.2778266
114	0xbe040e9a	-0.12896195
115	0x3d603304	0.054736152
116	0x3e4eaae6	0.2018238
117	0x3e6d422e	0.23169777
118	0xbe9b78be	-0.30365556
119	0x3eb33c41	0.35006908
120	0x3ee9d1ec	0.4566797
121	0x3eb6bf63	0.3569289
122	0xbc831880	-0.016002893
123	0xbe795330	-0.2434814
124	0x3e7a549c	0.24446338
125	0xbd874089	-0.06604106
126	0xbe8ccc7b	-0.27499756
127	0x3d8b015c	0.06787369
128	0x3e26fec6	0.16308126
129	0xbdf9ea3c	-0.1220288
130	0xbbe29d7d	-0.0069157467
131	0x3d70725e	0.05870282
132	0xbca36191	-0.019943984
133	0x3e1e72ea	0.15473524
134	0xbe6894e9	-0.22713055
135	0x3e266f3a	0.16253367
136	0x3eeeee9e	0.46666425
137	0x3ee2a816	0.44268864
138	0xbe4495e5	-0.19197805
139	0x3c96b855	0.018398443
140	0x3ec48b4f	0.38387534
141	0x3d8c5be2	0.06853463
142	0xbe82aacd	-0.25520936
143	0xbdccbeaa	-0.09997304
144	0x3e096d91	0.13420703
145	0xbd91e527	-0.071237855
146	0xbdcd423a	-0.10022397
147	0x3d7e91b6	0.06215068
148	0xbd52b67a	-0.051443554
149	0xbe8b14c5	-0.27164283
150	0x3c772a00	0.015085697
151	0xbdab5404	-0.08365634
152	0xbdf48a19	-0.119404025
153	0xbd183128	-0.037156254
154	0x3cd5e350	0.026109368
155	0xbdf4f3de	-0.119605765
156	0x3a079863	0.00051725487
157	0x3bd99fa8	0.006641347
158	0x3e140f1c	0.14458889
159	0xbe8a0baf	-0.2696204
160	0xbdf0ee80	-0.1176424
161	0xbdf2ce76	-0.118557855
162	0x3d829c13	0.06377425
163	0xbe9d2ae5	-0.30696788
164	0x3df9de92	0.12200655
165	0xbea30b63	-0.31844625
166	0xbdad1624	-0.084514886
167	0x3d77eb10	0.060526907
168	0x3e066758	0.1312536
169	0x3b2dc590	0.0026515462
170	0x3e800953	0.25007114
171	0x3e06ec82	0.13176158
172	0xbe0f208a	-0.13977256
173	0x3ec27fb9	0.3798807
174	0xbad76f00	-0.0016436279
175	0x3da5e110	0.08099568
176	0x3eac857e	0.33695596
177	0x3ec89456	0.3917567
178	0x3e071db0	0.13194919
179	0x3f00d850	0.50330067
180	0x3e80001d	0.25000086
181	0xbea7c09b	-0.32764134
182	0xbe55d265	-0.2088104
183	0x3e836c5f	0.25668618
184	0x3d9ba25e	0.075993285
185	0xbd04b837	-0.032402243
186	0x3cfd2380	0.030900717
187	0xbd5a5e2f	-0.053312477
188	0x3ea766ab	0.32695517
189	0xbb88f9cc	-0.0041801687
190	0xbe6ecfbe	-0.23321435
191	0x3e1e9d1c	0.1548962
192	0x3ce1a7d4	0.027545847
193	0xbeb537ca	-0.35394126
194	0xbe3d59e9	-0.18491329
195	0xbdb734e0	-0.08945632
196	0x3de99836	0.11405985
197	0xbce546a0	-0.027987778
198	0xbcd30bf0	-0.025762528
199	0x3e8a37d5	0.2699572
200	0xbe8aee88	-0.2713511
201	0x3edf463a	0.43608266
202	0xbe3437cd	-0.17599411
203	0x3de716d7	0.11283653
204	0xbe865e88	-0.26243997
205	0x3de98740	0.1140275
206	0x3e31a5a2	0.1734834
207	0x3ec58c17	0.38583443
208	0xbe449578	-0.19197643
209	0x3e835fa3	0.25658903
210	0x3e051c7d	0.12999149
211	0xbe8fec92	-0.28110176
212	0xbc9b8433	-0.018983936
213	0x3e0256e8	0.12728465
214	0x3df9f7d8	0.122054756
215	0xbd35ad10	-0.0443545
216	0x3e1ec7e8	0.15505946
217	0x3e602fff	0.21893309
218	0xbe7bca05	-0.24588783
219	0x3ea85a02	0.3288117
220	0xbea8dbbe	-0.3298015
221	0xbe4513da	-0.19245854
222	0x3d1c5768	0.038169295
223	0x3e244ef2	0.1604574
224	0xbee2969b	-0.44255528
225	0x3ebbf25a	0.36708337
226	0x3dbe753a	0.09299703
227	0x3e3f062c	0.18654698
228	0x3dfb97c6	0.12284808
229	0x3e566be6	0.20939597
230	0xbe4ba707	-0.19887935
231	0x3d9e8998	0.07741088
232	0xbebf8df0	-0.37412977
233	0x3e834d52	0.25644928
234	0xbd68b410	-0.056812346
235	0x3ed50a24	0.416093
236	0xbe58ab86	-0.21159181
237	0xbe99eb9c	-0.30062568
238	0x3e1b436a	0.15162435
239	0x3ead25e9	0.33817986
240	0xbefe4f22	-0.4966975
241	0x3e2aec14	0.16691619
242	0x3e28652f	0.16444848
243	0xbe200f29	-0.15630783
244	0xbea07f3d	-0.31347075
245	0x3e87c417	0.26516792
246	0x3b769a80	0.003762871
247	0x3e9a466f	0.30131862
248	0x3e43e824	0.19131523
249	0x3e652549	0.22377504
250	0x3d8f4de4	0.06997278
251	0x3dc2a19b	0.0950348
252	0xbe0a6aa5	-0.13517244
253	0xbe374045	-0.1789561
254	0xbd062968	-0.03275433
255	0x3ea54f8a	0.32287246

sequential_2/sequential_1/dense_5/MatMul f4 [4, 32]
0	0x3e6b6389	0.22987188
1	0x3e934480	0.287632
2	0xbd25a2d2	-0.04043848
3	0xbe313d8c	-0.17308635
4	0xbea5dfd5	-0.32397333
5	0x3dfb9d23	0.12285831
6	0xbe39b366	-0.18134841
7	0xbf10d5a8	-0.56576014
8	0xbeb1d8e3	-0.34735784
9	0xbecd7469	-0.40127876
10	0x3de0c08f	0.10974228
11	0xbf13b865	-0.5770324
12	0x3c0dc8dc	0.008653846
13	0xbe6c0f65	-0.23052748
14	0x3e8062ad	0.25075284
15	0xbd198ad3	-0.03748591
16	0x3e7e77e8	0.24850428
17	0x3e04a8b0	0.12954974
18	0x3e378826	0.1792303
19	0xbb6def4d	-0.0036305964
20	0xbe5526e5	-0.20815618
21	0x3e99944e	0.2999596
22	0xbedd02ff	-0.43166348
23	0xbf0e5de3	-0.5561201
24	0xbf07180d	-0.52771074
25	0x3dd1d880	0.10246372
26	0x3da4c41c	0.080452174
27	0xbe7a48aa	-0.24441782
28	0x3e64746b	0.22310035
29	0xbf0660c6	-0.52491415
30	0xbece70c4	-0.40320408
31	0x3e177ef0	0.14794517
32	0x3eb6cc21	0.35702613
33	0x3ec9129e	0.39272016
34	0xbebc09be	-0.36726183
35	0x3f00f601	0.5037537
36	0x3df4ced0	0.11953509
37	0x3e0f580a	0.13998428
38	0x3f1fe2c4	0.6245539
39	0xbe018ba4	-0.12650925
40	0x3ef533de	0.47891134
41	0x3cfd5a71	0.030926915
42	0x3ed3e8fa	0.41388685
43	0xbe1efcbc	-0.15526098
44	0x3f103e5a	0.5634514
45	0x3d4790ac	0.048721954
46	0xbee0b2eb	-0.43886504
47	0xbe85144d	-0.2599205
48	0xbe4495b0	-0.19197726
49	0x3edcaf6c	0.43102586
50	0x3e85e489	0.2615092
51	0xbf016a6b	-0.50553006
52	0xbe6c1268	-0.23053896
53	0x3ecf5e98	0.40501857
54	0xbe6ecaad	-0.23319502
55	0x3f0b088e	0.5430993
56	0xbf1a534b	-0.60283345
57	0xbe3a93ab	-0.18220393
58	0x3e9bbf7c	0.30419528
59	0xbeaee595	-0.34159532
60	0x3eda9e05	0.42698684
61	0xbe9a7718	-0.30168986
62	0x3f0707cf	0.5274629
63	0xbdde5db1	-0.10857714
64	0xbea1a1d6	-0.31568784
65	0xbddcc7fd	-0.10780332
66	0x3e055519	0.13020743
67	0x3d9d0524	0.07666996
68	0x3ef6b633	0.48185882
69	0x3f076ef9	0.52903706
70	0xbe79bb5b	-0.24387877
71	0xbedaef1e	-0.42760557
72	0xbe78f6bd	-0.24312873
73	0x3e8e0d99	0.2774475
74	0xbcf60459	-0.03003137
75	0xbdb94074	-0.090454966
76	0x3d4c9fa3	0.04995693
77	0x3eaf6db1	0.34263375
78	0x3e7188fb	0.2358741
79	0x3cafb72d	0.02144965
80	0x3e84851e	0.2588281
81	0x3ea45197	0.32093498
82	0xbf08c92b	-0.5343196
83	0xbebd0f4b	-0.3692573
84	0xbeac4d3b	-0.33652672
85	0x3e27283c	0.16323942
86	0xbe7c07f8	-0.24612415
87	0xbf09b8bc	-0.5379751
88	0x3ef2f28a	0.47450668
89	0x39f627aa	0.00046950328
90	0xbd42d2c8	-0.047564298
91	0x3e06d662	0.13167718
92	0x3e1b8163	0.15186076
93	0xbf137b73	-0.57610244
94	0xbd9af1f3	-0.075656794
95	0x3ec3a1b2	0.382093
96	0x3e66dd1f	0.22545289
97	0xbf3a0260	-0.72659874
98	0xbe90ac56	-0.28256482
99	0x3eb1296b	0.34601912
100	0xbe53e74d	-0.20693703
101	0x3e9b70bf	0.30359456
102	0xbf112558	-0.5669761
103	0xbf04b1e6	-0.5183395
104	0xbe1482dc	-0.14503044
105	0x3eba14c9	0.36343983
106	0x3e55d440	0.20881748
107	0xbef77d7a	-0.4833792
108	0xbe0a27a3	-0.13491683
109	0x3e628ab6	0.22123227
110	0x3cf7b14b	0.030235907
111	0x3e3f72cb	0.18696134
112	0xbebe9215	-0.37220827
113	0x3e111a51	0.14170195
114	0x3c95fdf6	0.018309575
115	0xbf0f8eaf	-0.5607709
116	0xbeb6e709	-0.3572314
117	0x3ecd342e	0.40078872
118	0xbeb49758	-0.35271716
119	0xbf07b205	-0.5300601
120	0xbe1eb02d	-0.15496893
121	0x3d90a7e0	0.070632696
122	0xbece0558	-0.40238452
123	0xbec3008e	-0.3808636
124	0xbdfd78cc	-0.12376556
125	0xbeccd7f8	-0.4000852
126	0x3d2e62da	0.04257474
127	0x3e6bdff5	0.23034652
